test/meta/SLAMVoModelTraningLogs/weights.pt (torch, 206652 bytes, 49 tensors)

_depth_estimator_._down_.0.0.weight f4 [32, 3, 3, 3]
000000 08 c4 e6 3d e4 3d 38 3e 03 79 19 3e 0e 33 22 3e
       0.11267859 0.1799236 0.14987569 0.15839788
000010 c7 72 48 be 71 8b 03 be be 69 51 bd 73 30 33 bd
       -0.19575034 -0.12846161 -0.051126234 -0.043747377
000020 5d 7a 05 bd d4 3f 64 3b 8a 3f 72 3d cd be 14 be
       -0.032587398 0.0034828084 0.059142627 -0.1452591
000030 ec 3f 0b 3e 2b 3e ec 3d da f0 10 be 3e c5 1c 3e
       0.13598603 0.11535295 -0.14154378 0.15309617
000040 23 3e 49 3e 2f 6a 65 3e 0c 84 21 3e e4 74 dc bd
       0.1965261 0.22403787 0.15773028 -0.107644826
000050 30 7c da 3d 4f 50 66 3d 1b 6b 3c bd dd 25 5b 3e
       0.10668218 0.056228932 -0.04600058 0.21401162
000060 49 62 92 3d db 74 06 3e 51 0e b5 3c ea 5c da bd
       0.07147653 0.13130514 0.022101553 -0.10662253
000070 ee 9b b6 3c 7f 6b ce 3c 1b 1e 79 be 97 4c 75 3d
       0.02229115 0.025197743 -0.2432789 0.059887495
000080 25 24 a8 bd 0a 66 4c 3d 8a 05 86 be 42 0e 01 be
       -0.08210019 0.049902 -0.261761 -0.12603095
000090 60 d9 4c be 7f 41 71 be d2 cc 3b 3e 5b ca 72 be
       -0.20004797 -0.23560141 0.18339851 -0.23710005
0000a0 37 d7 89 3d 00 0e 5c bc 46 4e fe bd ec cc 86 3c
       0.06730502 -0.013431072 -0.12417273 0.016455136
0000b0 83 f5 18 bc 18 5b 9f 3d ef 0b 0e bc 18 55 cb bd
       -0.009335878 0.07781047 -0.008669837 -0.0992834
0000c0 19 6b 90 bd f3 6e 05 be ad f8 f3 3d 06 b6 44 be
       -0.07051677 -0.13030605 0.119126655 -0.19210061
0000d0 13 cc 88 be e4 dd 14 be 31 ef 3a bc ee af ba bd
       -0.26718196 -0.1453777 -0.011409567 -0.09115587
0000e0 8c 14 81 bc 7d 66 15 3e f1 e8 c1 bd 5f f8 46 be
       -0.015756868 0.14589877 -0.09468258 -0.19430684
0000f0 3a 53 ef 3c 34 59 2a be d8 a9 10 be 3b 58 72 bd
       0.02921449 -0.16635591 -0.1412729 -0.059166174
000100 a7 33 64 bd c1 8d 98 3d e9 e6 29 3d a8 b1 8b be
       -0.055713322 0.074489124 0.04147998 -0.27283978
000110 d3 7d 86 be f6 61 e7 3d 1c 85 cd bd ab c9 2c be
       -0.2626787 0.112979814 -0.10035154 -0.16873805
000120 4e df 0b 3e ed cc 98 bd 11 d4 5a bd 8a 38 35 3d
       0.13659403 -0.074609615 -0.0534249 0.044243373
000130 cd f4 a8 3d 3f 48 6c be e3 de cc 3d 3f 25 be bc
       0.08249817 -0.23074435 0.1000345 -0.02321112
000140 03 f1 d7 bd 88 b7 c2 3d 68 d2 81 3e 8a 3d f6 3d
       -0.10544016 0.09507662 0.2535584 0.120234564
000150 51 00 ee 3d 5e d5 fb bd a5 13 30 3d eb df 79 be
       0.11621154 -0.12296556 0.042987484 -0.24401824
000160 a2 6f 26 3e 3a 74 fc 3d 90 9d 36 3d 20 2c 16 3d
       0.16253522 0.12326856 0.044583857 0.036663175
000170 47 fa de 39 35 29 eb bc 24 cf e2 bd 49 a0 42 3e
       0.0004252961 -0.028706172 -0.11074665 0.19006456
000180 24 e4 08 3d dd be 1e 3e e3 45 2d bd da 7e ba 3d
       0.033420697 0.15502496 -0.042302977 0.09106226
000190 69 e9 19 3d e1 87 36 3e 8a fa 69 bd ba b8 be 3d
       0.037576113 0.17825271 -0.0571237 0.093125775
0001a0 83 c0 f2 bd 85 d4 22 bd 03 9b cb 3d 7f 55 5d 3d
       -0.11853125 -0.039753456 0.099416755 0.054036614
0001b0 5d 3d 15 be b5 f0 ea 3c cc 90 12 3e e6 08 16 be
       -0.1457419 0.028679231 0.14313048 -0.14651832
0001c0 5c b0 26 be a5 1b 74 bd ac 28 e9 3c 57 36 41 3e
       -0.16278213 -0.059596676 0.028461777 0.18868385
0001d0 30 e7 28 3d da a5 19 be 75 c1 2e be dd d1 49 bb
       0.041236103 -0.15004674 -0.17065986 -0.0030795254
0001e0 22 45 cc bd 13 14 9b bd ba 68 7e 3c 64 17 0d be
       -0.099741235 -0.07572188 0.015527898 -0.13778454
0001f0 b6 31 8f be 66 20 42 3e 9f cc ab bd c3 66 e7 3d
       -0.27967614 0.18957672 -0.08388638 0.11298897
000200 66 62 7e bd a8 1e 07 be cc 21 b8 3d ba 17 04 be
       -0.06210556 -0.13195288 0.08990821 -0.12899676
000210 ff 2f 00 3d d2 6e 4e be b6 2c f6 bd 65 21 c8 3a
       0.031295773 -0.20159462 -0.12020247 0.0015268741
000220 37 d0 85 3d 9d 87 87 bc e9 67 cf bb e7 5a 75 3e
       0.065338545 -0.016544158 -0.0063295257 0.23960458
000230 cf 62 b9 3c cb 39 08 be 2d d1 4d 3d 7e 64 d4 3d
       0.022630123 -0.13303296 0.050248314 0.1037073
000240 ae 2b 7a 3e 7f 10 00 3c 09 b7 3e bd 0b 91 8d 3e
       0.24430725 0.007816433 -0.046561275 0.27649722
000250 f3 69 43 bd 10 ed 93 bc ff 4f 3a 3e 95 af 36 bd
       -0.047708463 -0.018057376 0.18194579 -0.04460104
000260 90 66 24 3d d5 39 2b 3e 0a f1 4a 3e 5b 61 4b 3e
       0.040136874 0.1672128 0.19818512 0.19861357
000270 f3 31 0b 3e 45 d0 0d be 64 ab b5 bc 9b 7a 86 3d
       0.13593273 -0.1384898 -0.022176452 0.06566354
000280 83 fe 58 3d c1 1b 78 3d 1e 88 fc 3c f9 c4 a9 3d
       0.052977096 0.060573343 0.030826624 0.08289523
000290 05 9b 5d 3e 6c 57 0c 3e 9e 27 a5 3c 01 33 1f 3e
       0.21641167 0.13705224 0.020160493 0.155468
0002a0 b8 b4 34 3e 7e 37 a0 bd a5 af 35 3e 3e c7 ab 3c
       0.17647064 -0.07823084 0.17742784 0.02096903
0002b0 99 67 a6 bd 59 d5 80 3e 3a c6 91 3d ae 72 7d 3d
       -0.081252284 0.2516277 0.07117887 0.061876945
0002c0 4b 3e f8 3c 56 36 5b 3e 00 6e 2a 3e 49 d3 fe 3c
       0.030303141 0.21407446 0.16643524 0.031106608
0002d0 cf 6a 2e 3a 84 d4 c9 bc 27 b5 ca bd 26 b5 ff bd
       0.0006653489 -0.024637468 -0.09897833 -0.12485723
0002e0 80 91 b1 bd e1 63 3e 3e 2a 81 52 3d 78 89 88 3d
       -0.0867033 0.18592788 0.05139271 0.06666845
0002f0 05 f1 82 bd 84 58 11 be a8 a4 65 bd a5 d7 64 bd
       -0.06393627 -0.14193922 -0.05606523 -0.055869717
000300 cb 8a df 3c 94 c4 18 bd 11 85 e4 3d da 87 70 bb
       0.027287861 -0.037296847 0.11158193 -0.0036702068
000310 00 f8 91 38 e0 7f 10 3e bf 17 84 3d 94 44 b1 be
       6.9603324e-05 0.1411128 0.06449842 -0.34622633
000320 f9 f3 ad be 57 dc f0 bd 28 2e 6f be 00 1a 41 be
       -0.339752 -0.117607765 -0.23357451 -0.18857574
000330 95 27 d1 3d 1e a1 9f bd 88 22 92 bd 6a 71 4a be
       0.10212628 -0.077944025 -0.071354926 -0.19769827
000340 89 17 aa be cc e9 ae bd 79 79 32 be 3b f3 fa 3d
       -0.3322108 -0.08540687 -0.1742915 0.12253424
000350 27 a3 03 3e 3f 57 29 3d 0c 21 ef bd f8 22 50 3c
       0.12855206 0.04134297 -0.11676225 0.01270365
000360 ac 43 54 3e 3f 1c 16 bc cc 6c 38 3e 46 f0 2f 3e
       0.2072894 -0.009162008 0.18010253 0.17181501
000370 fa 03 0a be d3 e0 eb 3d d5 92 1e 3e fc 35 9d bd
       -0.1347808 0.11517491 0.154857 -0.07676312
000380 f1 d7 a1 bd 15 55 71 3d 14 5a b0 3d b3 30 7c 3e
       -0.07902516 0.05891903 0.08610931 0.24627952
000390 0f 37 64 3d bc 15 c7 3d 37 58 6d 3e 69 59 1c 3b
       0.05571657 0.097209424 0.23178183 0.0023857004
0003a0 84 d7 5d 3e 0d 62 ea 3d 8e 29 7d 3d 15 e9 d4 bd
       0.21664244 0.11444483 0.061807208 -0.10396019
0003b0 bc b0 92 bd 51 f3 cb bd be 02 d9 bd 2a 84 1d 3e
       -0.07162616 -0.09958518 -0.10596226 0.15382448
0003c0 7f 80 3a 3d 78 6d f7 3d ae 8c 82 3c 51 3c e4 3d
       0.0455327 0.120814264 0.015936222 0.11144317
0003d0 0b 20 72 3e 2c c7 b3 bd 65 e8 88 3d 33 d3 9b 3d
       0.23645036 -0.087782234 0.06684951 0.076086424
0003e0 c2 01 30 3e bf 08 19 3d 0c e0 15 3e 99 28 a2 bd
       0.1718817 0.037361857 0.14636248 -0.079179
0003f0 02 3b 16 3c 66 71 a0 bd 8b ba 0e 3e c3 54 f7 3d
       0.009169342 -0.07834129 0.13938348 0.12076714

_depth_estimator_._down_.0.0.bias f4 [32]
000000 46 e7 07 be 5f 9c a3 3d 99 76 81 bd 31 14 ba bd
       -0.13271818 0.0798881 -0.06321449 -0.090858825
000010 3e 44 e3 bd 8c cf 4c be 19 c2 28 be ed d0 82 bd
       -0.110970005 -0.20001048 -0.16480292 -0.06387506
000020 88 a8 65 3d a9 22 1e 3d 29 71 d7 3d 90 26 02 be
       0.056068927 0.038607273 0.105196305 -0.12710023
000030 04 3b 14 be ce 6a d6 3d 51 31 55 3d ad 37 42 3e
       -0.14475638 0.1046959 0.052048985 0.18966551
000040 09 87 db bc 6d 58 f6 3d 1b 6f c1 3c a6 c5 1b 3e
       -0.026797788 0.12028585 0.02361255 0.15212116
000050 50 a1 4f bc b9 7b 16 3d 2a 0a fc 3d 76 14 0b 3b
       -0.012672737 0.036739085 0.12306626 0.0021221912
000060 ce 74 85 bd 13 f9 c4 bd a2 95 03 3d ad 6f ff bd
       -0.06516419 -0.0961782 0.032125123 -0.12472472
000070 76 1e 19 3e 5e dd 99 bc af f4 03 3e 9e 6a 32 bd
       0.14953026 -0.018782314 0.12886308 -0.04355871

_depth_estimator_._down_.0.1.weight f4 [32]
000000 34 b1 8b 3f 05 91 7b 3f 76 d6 5d 3f 25 f3 6b 3f
       1.0913453 0.9826816 0.86655366 0.92167884
000010 b8 95 6f 3f 71 5b 85 3f 74 63 79 3f b0 d6 7f 3f
       0.9358783 1.0418531 0.9741738 0.9993696
000020 ec 45 5f 3f 01 cd 77 3f d8 e2 5e 3f da 53 75 3f
       0.8721607 0.96797186 0.87064886 0.9583107
000030 22 f5 69 3f 3a cd 6e 3f 70 7b 72 3f 80 26 88 3f
       0.9138967 0.932819 0.947196 1.0636749
000040 b4 7b 5c 3f 63 2c 59 3f 2c 71 86 3f a4 6d 7f 3f
       0.86126256 0.84833354 1.0503287 0.99776673
000050 70 52 89 3f bd af 80 3f e9 e0 8c 3f 97 a4 8a 3f
       1.0728283 1.0053631 1.1006137 1.0831479
000060 ae 35 76 3f d5 83 80 3f 62 20 88 3f e2 b5 7e 3f
       0.9617566 1.0040232 1.0634882 0.9949628
000070 aa 13 7d 3f c2 14 69 3f 3e c3 63 3f 38 f7 76 3f
       0.9885813 0.910473 0.8896979 0.96470976

_depth_estimator_._down_.0.1.bias f4 [32]
000000 a9 ba 80 3d 0c bf 4f 3c 2c 88 95 bd a4 54 6c bd
       0.062856026 0.0126798265 -0.07301363 -0.057697907
000010 36 ee 42 bd 3a e4 15 3c 63 94 ad 3c 07 c5 e7 3c
       -0.047590457 0.009148652 0.02118892 0.028292192
000020 b4 88 fb bd 2c 56 2b bd a3 f4 bd bd a8 63 48 bd
       -0.122819334 -0.041830227 -0.092751764 -0.048923165
000030 82 67 d7 bd 26 37 54 bd 44 5c 7d bd 79 5d bf 3d
       -0.105177894 -0.051810406 -0.06185557 0.09344
000040 a8 f6 ec bd bb b0 6d bd 4a e3 2c 3d 00 d9 ff bc
       -0.115704834 -0.05802987 0.042208947 -0.031231403
000050 b9 b7 8b 3d f5 f7 69 3c f6 8d 0c 3e fa bb 2a 3d
       0.06822152 0.014280309 0.13726029 0.041683175
000060 63 bb ca bc be 93 22 bd 31 93 a7 3d 4e ec 71 bc
       -0.024747556 -0.03969168 0.081823714 -0.014765812
000070 81 98 ca bd 20 40 a5 bd 3f 51 07 be e5 f5 70 bd
       -0.09892369 -0.080688715 -0.13214587 -0.058828253

_depth_estimator_._down_.0.1.running_mean f4 [32]
000000 2c c4 a8 3e 53 cb 15 bf b9 5d f1 be 64 93 a1 3e
       0.32962167 -0.58513373 -0.47141817 0.31557763
000010 49 e1 02 bf 69 f6 b8 3e 58 1b ca 3e 02 3b 34 bf
       -0.5112501 0.36125496 0.39473987 -0.7040254
000020 66 87 21 3f 78 57 1f 3f 20 3b 1e 3f 2c c2 e1 3e
       0.63097227 0.6224284 0.6180897 0.44093454
000030 30 54 5d bf 6d be f0 be 54 73 d4 3e 9f 79 56 bf
       -0.86456585 -0.47020283 0.41494238 -0.8377933
000040 71 55 02 3f 46 06 09 3f 29 3d 4a 3f c9 f9 06 bf
       0.50911623 0.535252 0.78999573 -0.5272489
000050 55 25 c3 3e 00 20 03 bf 4b 67 49 bf 11 ef 84 3e
       0.3811442 -0.51220703 -0.7867324 0.25963643
000060 e3 e2 f7 3e a0 e8 ac 3e 90 72 f7 be 55 ac c9 3d
       0.48415288 0.3377123 -0.48329592 0.09847323
000070 f1 f6 37 bd 89 91 fd 3e ca 0a dd be b8 a9 02 3f
       -0.044913236 0.49525097 -0.43172294 0.5104022

_depth_estimator_._down_.0.1.running_var f4 [32]
000000 c1 0a 97 3d 1b 1b 13 3e f6 78 4a 3d 68 fd 51 3d
       0.07375098 0.14365809 0.049431764 0.051267058
000010 1b 3c 65 3d f4 27 db 3d 2e 77 a9 3d f5 a9 0c 3e
       0.055965524 0.1070098 0.08274685 0.13736708
000020 b3 6a bf 3d b8 a8 d8 3d 26 fb 99 3d 76 3f ae 3d
       0.09346523 0.105790555 0.07518606 0.08508198
000030 b4 e6 1c 3e e8 ab d1 3d de aa 10 3d bf 3f b1 3e
       0.15322381 0.10237867 0.0353192 0.34618947
000040 db 59 c2 3d c6 05 49 3d 76 d4 2f 3e e7 f7 07 3e
       0.09489795 0.04907777 0.17170891 0.13278161
000050 3a 7e 44 3d 6c 67 cd 3d 6e 00 84 3e 36 76 e9 3c
       0.04797194 0.10029492 0.25781578 0.02849875
000060 65 a9 b3 3d 8f aa 77 3d 98 f1 b9 3d 89 cd c0 3c
       0.08772544 0.06046539 0.090792835 0.023535507
000070 06 4e 86 3c 71 7b 99 3d e3 77 d2 3d 77 22 dd 3d
       0.016394626 0.07494248 0.10276773 0.10797589

_depth_estimator_._down_.1.0.weight f4 [32, 32, 3, 3]
000000 3f a0 30 be 4f e9 4b be 24 d6 19 be e6 50 a2 bd
       -0.17248629 -0.19913219 -0.15023094 -0.079255864
000010 4f b9 50 be 7c 9d 33 be b4 e1 dc bd 8a dd 05 be
       -0.2038319 -0.17540544 -0.10785237 -0.13072792
000020 5c f5 b4 bd 47 b2 11 be b3 6d 03 be 48 0f 0a be
       -0.08835861 -0.14228164 -0.12834816 -0.13482392
000030 0c 60 39 be bd 93 0e be be f9 18 be 5b 2c 41 be
       -0.18103045 -0.13923545 -0.14939019 -0.18864577
000040 12 cb 67 be cb 29 50 be 1e b7 08 3d d2 f4 1f bc
       -0.22636059 -0.20328443 0.03337776 -0.00976296
000050 84 8b ee bc 2d 86 c1 bc 90 48 81 bc d4 d0 19 bd
       -0.02911926 -0.02362355 -0.01578167 -0.03755267
000060 82 2a 77 bd e2 41 f1 bc 10 c0 cc 3c ee d4 16 be
       -0.060343273 -0.02945036 0.024993926 -0.14729664
000070 20 73 0d be 9f 7b f0 bd b1 35 a4 bd 2c 41 fe bd
       -0.13813448 -0.11742329 -0.08018053 -0.12414774
000080 4b 8c 04 be 13 52 b1 bd 01 c8 52 be ae 28 2c be
       -0.12944143 -0.086582325 -0.20584108 -0.16812393
000090 3f 6e 3d 3d e3 6e 89 3d e4 3d 11 bc 5e 66 ac 3d
       0.046247717 0.06710603 -0.0088648535 0.084179625
0000a0 44 44 27 3b 58 96 69 3c 53 df 48 3d 2a 2d 85 3c
       0.0025522867 0.014257036 0.049041104 0.016256887
0000b0 a6 be 25 3d fb 22 28 bd 69 22 96 bd b1 29 07 be
       0.04046502 -0.041048985 -0.07330782 -0.13199498
0000c0 99 8f b2 bd 1e e5 00 be 0c b9 df bd 0d 5e 75 bd
       -0.08718795 -0.12587401 -0.10923967 -0.059904147
0000d0 05 e4 e0 bc 0a ae b4 bd 3f d2 4e be 77 34 74 be
       -0.027452478 -0.08822258 -0.2019739 -0.23848139
0000e0 48 56 2a be cf 2e d9 bd c5 a5 13 be 17 1f fe bd
       -0.16634476 -0.10604631 -0.14418705 -0.12408274
0000f0 3f 69 39 be e8 5c 24 be f0 9a 0e be a9 c1 09 bd
       -0.18106554 -0.16051066 -0.13926291 -0.033631954
000100 6a da 10 be 96 54 53 bd 72 a8 b8 bd 16 95 c7 bd
       -0.14145818 -0.05159434 -0.090165034 -0.09745233
000110 cb ed 28 be db 8f c6 bd 86 49 20 bd 15 3a 9d bc
       -0.16496961 -0.09695407 -0.039132617 -0.019192735
000120 c2 78 f2 bd 04 49 1f bd c1 90 1c be 5e 3a e4 bd
       -0.11839439 -0.038887993 -0.15289594 -0.11143945
000130 17 79 a2 bd 48 b1 58 bd d0 fa 01 bd 2f 5d 5d bd
       -0.07933252 -0.052903444 -0.031733334 -0.054043945
000140 3e ef 7a bd 7c ea fc bd 12 0f b2 bd 3f 9a a4 bd
       -0.061263315 -0.12349412 -0.08694281 -0.080372326
000150 31 c8 f7 bd 24 5b 02 be 12 67 e8 bd 8e 30 ef bd
       -0.1209873 -0.1273008 -0.11347784 -0.11679183
000160 c6 4f 0d be 12 68 01 be 62 17 90 3d e0 20 51 3d
       -0.13799962 -0.12637356 0.0703571 0.051056743
000170 9f a4 e7 3c c3 ef 8a 3c 82 89 1c bd ba 7e ea 3b
       0.02827674 0.01696003 -0.038217075 0.0071562203
000180 0c b8 99 3c 12 a7 8b 3c 47 f5 62 3d 33 e9 5f be
       0.018764518 0.017047439 0.055409696 -0.21866302
000190 dc 58 56 be 44 35 02 be 8c 79 4f be 6d 6c 4f be
       -0.20932335 -0.12715632 -0.2026121 -0.20256205
0001a0 c2 ce 1b be bd ed 48 be 1f 49 f4 bd 53 49 25 be
       -0.1521559 -0.1962194 -0.11928009 -0.16141252
0001b0 dd 09 c3 3b 97 78 07 3d d7 33 8a 3d 81 b9 b9 bc
       0.0059521035 0.033073988 0.06748169 -0.022671463
0001c0 15 18 18 bd ea 5c 01 3d 24 b9 47 bc ab 14 5f 3d
       -0.03713234 0.03158275 -0.012190137 0.05446307
0001d0 09 35 27 3c aa 7f 51 3d 88 20 e0 3d 4f 3b a8 3d
       0.010205516 0.05114714 0.10943705 0.08214437
0001e0 8d b5 dc 3d 12 8d 89 3d 0c 3a 61 3d 1c b5 b6 3d
       0.107768156 0.0671636 0.054987 0.089212626
0001f0 02 60 71 3d ba bd 0e 3e 36 c1 85 be 3c 78 73 be
       0.05892945 0.13939562 -0.2612397 -0.23776335
000200 5b 51 3e be 74 36 3e be 54 01 13 be bd 2a a1 bd
       -0.18585722 -0.1857546 -0.14355975 -0.0786948
000210 6f e8 09 bd 80 84 55 3a 13 82 6c 3d ef c6 97 3d
       -0.03366893 0.0008145049 0.057741236 0.074109904
000220 7d e8 94 3d f6 c4 08 3e 3d c9 ab 3d a9 97 80 3d
       0.07270906 0.13356385 0.083879925 0.06278927
000230 fc ff 08 3e 32 88 3d 3d 19 0e b0 3d fc b7 6b 3d
       0.133789 0.046272464 0.08596439 0.057548508
000240 c3 11 e5 3c be 46 c0 bc 27 33 48 bc ad 77 81 bd
       0.027962571 -0.023471233 -0.012219227 -0.063216545
000250 eb 36 a1 bd 2a 46 89 bd 56 bb 48 bd 90 c0 2b bd
       -0.07871803 -0.06702836 -0.049006782 -0.04193169
000260 48 31 f2 ba cc f8 60 be 0c 96 34 be db 97 68 be
       -0.0018477822 -0.21969908 -0.17635363 -0.22714178
000270 4c 6b ff bd 19 29 5f bd 9b 5b f8 bd 88 5a f3 bd
       -0.12471637 -0.054482553 -0.12126847 -0.11882502
000280 cd b6 e0 bd ee 58 96 bd 37 af 4e be 9c 9e 33 be
       -0.109723665 -0.07341181 -0.20184027 -0.17540973
000290 e1 eb b8 bd 51 7d ad bd db cc 3a be f6 61 b8 bd
       -0.09029365 -0.08471168 -0.18242209 -0.090030596
0002a0 c1 f7 36 be ca dd b1 bd e3 c1 d7 bd ca c1 41 3d
       -0.17867948 -0.08684881 -0.10535028 0.047303952
0002b0 f4 a2 b2 bc aa 99 1b 3d 20 d8 6e 3d 9f e6 09 3e
       -0.021806218 0.037988342 0.05831158 0.13466881
0002c0 7e ca ba 3d e7 0a 9e 3d 01 63 a5 3d 7b 7d 37 3d
       0.091206536 0.07716923 0.08075524 0.044797402
0002d0 a3 7c 03 be d9 b6 34 be 14 5c 00 be 58 c2 c3 bd
       -0.12840514 -0.17647876 -0.12535125 -0.095585525
0002e0 6e aa 04 be 26 61 07 be 38 7e 4e bd bd 09 95 bd
       -0.12955639 -0.13220653 -0.05041334 -0.07277248
0002f0 0b 6e 80 bd cb 07 1b 3d ab a6 6c 3d 6a 2b 55 3b
       -0.06270989 0.03784923 0.057776134 0.0032527098
000300 b8 be 1e 3c 5f 2b ad bd 9b 06 80 bd 98 2e 6f 3c
       0.009689026 -0.08455538 -0.0625126 0.014598511
000310 a4 6d 90 bd 96 5e ef 3b 8f b1 61 bd c6 a6 96 bd
       -0.07052162 0.0073049767 -0.055100974 -0.07356028
000320 92 95 75 bd c8 49 02 3d b7 e2 04 3c 33 52 06 3d
       -0.059957094 0.031808645 0.008110694 0.032793235
000330 ba 14 77 bd fa e7 91 bc 97 29 90 bc e5 e7 b8 bd
       -0.0603225 -0.01781081 -0.017597957 -0.09028605
000340 c1 85 b1 bd 2b 97 05 be b9 2c 28 be a3 5e fa bd
       -0.0866809 -0.13045947 -0.1642331 -0.12225082
000350 0c 0d cc bd 06 60 b1 bd 0b bf 29 be 42 5c f9 bd
       -0.09963426 -0.08660893 -0.16576783 -0.121758
000360 ef ef dd bd 8c d6 34 bd dd 9f d8 bc f5 3c af bd
       -0.10836779 -0.04414992 -0.026443416 -0.085565485
000370 1b 50 d3 bd 69 fa 9e bd 3e b8 c1 bd 98 a5 ea bd
       -0.10318013 -0.07762606 -0.094589695 -0.11457366
000380 ac 86 1e bd 4b 32 ae bd dd b1 85 bd cb 45 42 bd
       -0.03870265 -0.08505686 -0.06528065 -0.04742984
000390 7d ac 04 be c7 0b 1b bd 28 e0 6a bd 1e 5a 0f be
       -0.12956424 -0.03785303 -0.05734268 -0.1399922
0003a0 02 e3 b4 bd f4 09 85 bd 95 6a 80 bc 33 05 c9 3b
       -0.08832361 -0.06496039 -0.015675822 0.006134653
0003b0 29 3b 80 bd 66 15 b5 bc 01 a8 16 3b 33 bb 50 bd
       -0.06261284 -0.02210493 0.0022988322 -0.050959777
0003c0 c2 31 26 bd b8 30 24 bd 6c 28 be 3c a5 14 58 be
       -0.040574796 -0.040085524 0.023212634 -0.21101625
0003d0 ea f4 bf bd 1a ba 3e be 95 e1 e6 bd 26 36 25 be
       -0.093728855 -0.1862568 -0.11273495 -0.16133937
0003e0 47 e4 01 be 66 33 33 be a4 5a 4f be e4 38 35 be
       -0.12684737 -0.17500076 -0.2024942 -0.17697483
0003f0 a8 88 e5 bd f2 d2 4c be 96 d2 e6 bd 43 3d 74 bd
       -0.11207706 -0.20002344 -0.11270635 -0.059628736

_depth_estimator_._down_.1.0.bias f4 [32]
000000 4e bd 44 bd a4 4a 26 bd d3 c4 54 3b ce 23 e1 3c
       -0.048032098 -0.040598527 0.003246595 0.027482893
000010 12 e5 51 bc 8c 73 36 bd cb 07 1b 3d 54 ba 21 3d
       -0.012810962 -0.044543788 0.03784923 0.039484337
000020 1b ee 01 bd 84 f7 db 3b 3f e4 4e bd cb 65 44 bc
       -0.031721216 0.006712856 -0.05051064 -0.01198716
000030 7c 27 55 3d 0c 9b 0a bd 20 4c ee bc 17 c3 2c 3d
       0.05203961 -0.03383927 -0.029089034 0.04217824
000040 f8 a6 a8 3c a9 19 04 bd ea fc 5f 3d 43 d7 28 3d
       0.02058743 -0.032251034 0.054684557 0.041220915
000050 54 12 d8 3b 19 67 9e 3c c2 2f 15 3d 01 6d ca 3b
       0.0065939818 0.01933627 0.0364225 0.006177545
000060 5b 20 78 bb f3 1a 49 bd f7 f1 04 bd ff 2c 38 bd
       -0.0037861082 -0.049097966 -0.03245732 -0.044964787
000070 0e d7 d0 bb 13 dc 4d 3d 50 c8 09 3d 19 35 ab 3b
       -0.0063732928 0.050258707 0.0336383 0.0052248356

_depth_estimator_._down_.1.1.weight f4 [32]
000000 d4 64 73 3f a1 ce 83 3f ec c6 86 3f 07 b4 82 3f
       0.95075727 1.0297433 1.0529456 1.021119
000010 a2 6c 82 3f cb 6d 83 3f f9 9b 76 3f bf f9 84 3f
       1.0189402 1.0267881 0.96331745 1.0388716
000020 be 6d 76 3f 1d 1a 6d 3f 2e 70 76 3f d0 92 7b 3f
       0.96261203 0.9261797 0.9626492 0.98270893
000030 bf fc 6f 3f 77 05 74 3f ba 88 6f 3f 32 9a 68 3f
       0.93745035 0.9532084 0.93568003 0.90860283
000040 27 ee 73 3f da 52 62 3f f8 cf 47 3f 90 39 6d 3f
       0.95285267 0.8840767 0.7805171 0.9266596
000050 44 86 8a 3f 3e 08 6b 3f f7 11 85 3f 39 eb 71 3f
       1.0822225 0.9180945 1.0396107 0.94499546
000060 8f 3d 8c 3f ff 5b 84 3f 81 d2 68 3f 48 bb 73 3f
       1.0956286 1.0340575 0.90946203 0.95207644
000070 68 5a 82 3f 06 e0 87 3f 09 d2 5e 3f cc f7 65 3f
       1.018384 1.0615242 0.8703924 0.89831233

_depth_estimator_._down_.1.1.bias f4 [32]
000000 5e fb 29 bd 48 40 c2 3c b4 01 e7 3c c4 a0 92 3d
       -0.041499488 0.023712292 0.028199054 0.0715957
000010 4c 24 3d 3d ca 97 b1 3d 14 86 06 bd 18 d5 b9 bc
       0.046177194 0.086715296 -0.03284271 -0.022684619
000020 8d 51 6b bc 8f 9b 11 be 6e fb 14 bc 20 69 5c bb
       -0.014362705 -0.14219497 -0.009093149 -0.0033631995
000030 c7 ff 98 bd 95 18 3a bd 7d af 7b bd 9e e3 8a bd
       -0.07470661 -0.0454336 -0.061446656 -0.06781696
000040 c8 4c a6 bd b0 f6 d4 bd 32 b6 58 be 60 bc 99 bd
       -0.081201136 -0.103986144 -0.21163252 -0.07506633
000050 e7 53 af 3d 4f 28 94 bd 53 d6 79 bb 96 7e 20 bd
       0.08560925 -0.07234251 -0.0038122132 -0.03918322
000060 16 15 c3 3d a1 cb 52 3d 0a 85 be bd 05 f2 ec bd
       0.09525506 0.051463727 -0.09302719 -0.11569599
000070 7a c3 97 bc 88 9a a1 3d 6c 5a be 3c 07 c3 75 bd
       -0.018525828 0.078908026 0.023236476 -0.060000446

_depth_estimator_._down_.1.1.running_mean f4 [32]
000000 da 8e d3 c0 d4 51 4e bf ad 7b 92 3f 7c 80 b0 c0
       -6.611188 -0.8059361 1.1443993 -5.515684
000010 e8 4d 3f 40 55 7f 83 be 2f 42 e8 bf 80 2e 01 40
       2.98913 -0.25683084 -1.8145198 2.0184631
000020 ed 77 d2 bd 44 b3 80 40 a8 b5 ac 3e dc 34 97 bf
       -0.1027678 4.021883 0.33732343 -1.1813006
000030 48 23 aa 3f 35 b1 84 c0 3a b4 95 c0 c0 72 c3 c0
       1.3292017 -4.1466317 -4.6782503 -6.1077576
000040 56 d8 e9 c0 de 77 a2 bf b6 7f fb 3f f1 32 6a 3f
       -7.307658 -1.269283 1.9648349 0.9148398
000050 12 ff 68 3f 59 40 07 c0 b6 04 7b 40 2c 1d 74 c0
       0.91014206 -2.1133025 3.9221625 -3.8142805
000060 84 a9 f2 3f ad 46 1a be 74 5c 82 40 68 12 1e 3e
       1.8957982 -0.15066023 4.073786 0.15436709
000070 0b 8c b7 3f 9b 50 20 3f 1b b2 07 c0 3e b3 95 c0
       1.4339613 0.62622994 -2.1202457 -4.67813

_depth_estimator_._down_.1.1.running_var f4 [32]
000000 2c ea c0 42 73 fa 59 41 4e b2 06 41 cb e5 66 42
       96.45737 13.623645 8.418531 57.724407
000010 82 1d c7 41 ea f1 c8 40 1d a1 55 40 32 95 40 41
       24.889408 6.2795305 3.3379586 12.036425
000020 1c 44 e4 41 20 e8 d5 41 9b 2f 56 41 1c 24 c1 41
       28.533257 26.738342 13.386622 24.142632
000030 4e 5e ff 41 fd 54 2d 41 6c 29 cd 42 79 ff 02 43
       31.921047 10.833249 102.5809 130.99794
000040 e4 ea a8 42 6b 7e 6d 41 3e f3 7e 41 83 07 8a 41
       84.45877 14.843364 15.934385 17.253668
000050 6e 3d 04 41 29 d3 4d 42 41 05 51 42 9e 61 6e 41
       8.2649975 51.45621 52.25513 14.898832
000060 05 77 36 41 97 e7 4b 41 2c ba 07 42 14 c2 9c 40
       11.4040575 12.7440405 33.93181 4.898691
000070 56 49 f8 40 85 8c 9a 41 cf 7e e1 41 4d 10 04 43
       7.758952 19.318613 28.186918 132.06367

_depth_estimator_._down_.2.0.weight f4 [32, 32, 3, 3]
000000 ee ba 17 bd 1f 5a d3 bd a0 f1 80 bd 9a 96 00 bd
       -0.037043504 -0.103199236 -0.06296086 -0.031393625
000010 e2 de ee bc 7b 68 0e bd 6a 88 78 bd 85 8e e8 bd
       -0.029159013 -0.03476761 -0.06067697 -0.113553084
000020 fd 97 c6 bd 6f f6 ce ba b2 1c 92 bd d5 c2 00 bc
       -0.09696958 -0.0015789996 -0.071343794 -0.007858952
000030 25 a6 99 bd 20 98 24 bd 49 07 c4 bd cb c1 4a 3c
       -0.07502393 -0.04018414 -0.09571702 0.012375305
000040 92 73 e3 3b 4d ec 64 bd 43 8a c6 bd 20 a3 d7 bc
       0.0069412673 -0.055889416 -0.0969434 -0.026322901
000050 40 c3 6e bd f6 b1 fd bd ec e9 a4 bc a3 6a 7c bd
       -0.058291674 -0.12387459 -0.020131074 -0.061625134
000060 6e 4b b0 bd 62 e9 ac bd 25 82 88 bc 24 48 51 3c
       -0.08608137 -0.08442952 -0.01666362 0.012773547
000070 ed 20 7f 3c b2 79 39 bc 5e 7b 0c 3d 0d a8 bf 3c
       0.015571815 -0.011320518 0.03429734 0.023395563
000080 4b 90 31 bd b3 dc 5d bd fe a6 34 bc 0e b0 c7 bc
       -0.0433505 -0.054165553 -0.011026142 -0.024375942
000090 5f 4a e0 bd 51 f9 95 bd 9a 1a ac bd 3c 32 b9 bd
       -0.10951685 -0.07322944 -0.08403511 -0.090427846
0000a0 fd a4 a3 bd 7c a2 b9 bd 8a d2 01 be cd 58 fd bd
       -0.079904534 -0.090641946 -0.1267797 -0.12370453
0000b0 8c be f9 bd 56 38 7c 3b b3 3c 2e bd 5c 84 07 bd
       -0.12194547 0.0038485727 -0.042538356 -0.033085212
0000c0 f9 f1 65 bd 67 e5 c9 bd 96 a0 86 bc 28 b1 56 bd
       -0.056138966 -0.09858208 -0.016433995 -0.052415043
0000d0 88 37 6b bd 00 2e eb bd 8f 72 06 bc 58 9e 2e 3d
       -0.057426006 -0.11483383 -0.008206024 0.042631477
0000e0 6a 48 58 3d 87 6c 00 bc a7 c0 aa 3d d7 80 77 3c
       0.052803434 -0.007838375 0.08337527 0.015106401
0000f0 a4 b4 e9 3c 3c 8a 95 3d 2d 4c 95 3d 03 4f bb bd
       0.028528519 0.07301757 0.0728992 -0.0914593
000100 ff 90 44 bc 2d 04 14 bd 74 0d e2 3c 41 e5 2d 3b
       -0.01199746 -0.036136795 0.027594306 0.002653435
000110 d5 8a 88 bd 2d b2 66 bd 64 fb 1a bd 1b 4d cb bd
       -0.06667105 -0.056322265 -0.0378374 -0.09926816
000120 ed 49 a9 bd 96 18 33 3c 0d 87 c4 3c 68 8f c1 3b
       -0.08266053 0.010931155 0.023990178 0.005906988
000130 af ea 63 bd ea 04 15 bd 2a 47 38 bd 4f 0f c7 bc
       -0.055643734 -0.03638164 -0.044989742 -0.024299292
000140 5f e5 bd 3c fe b4 fe bb b7 56 60 bc d4 72 e1 b9
       0.023180662 -0.007773041 -0.013692549 -0.00043000898
000150 fb 9c c2 bc c2 ab e9 bd 74 56 a1 bd b2 ab c8 bc
       -0.023756495 -0.11409713 -0.07877818 -0.024495933
000160 1b b0 80 bd cf 63 63 bd 18 c1 4e bc 3b 95 4b bc
       -0.062835895 -0.055515107 -0.012619279 -0.012425716
000170 53 45 ea 3c 58 20 f4 bc f0 97 1c 3e bd d4 e1 3d
       0.02859751 -0.029800579 0.15292335 0.11026905
000180 ce d6 3b 3d f2 36 c3 3d b6 4f bd 3c 01 c1 88 bd
       0.04585915 0.09531964 0.023109298 -0.066774376
000190 a7 3b bb bd 3f d8 f4 bc de 87 07 bd 61 d5 95 bb
       -0.09142237 -0.02988827 -0.033088557 -0.004572556
0001a0 6f 08 0c be b2 be d0 bd b8 bc c0 bd 34 05 a1 bc
       -0.13675092 -0.10192622 -0.09410995 -0.019655801
0001b0 d1 b3 28 be 60 af f6 bd f4 b3 be bd 86 1c 86 bd
       -0.16474845 -0.12045169 -0.09311667 -0.06548409
0001c0 f9 12 62 bd 0b ff e8 bd 88 a3 03 be 2b 3d eb bd
       -0.055193875 -0.113767706 -0.12855351 -0.11486276
0001d0 af 42 4b bd 56 93 ad bd 5e 53 1e bd 96 96 c3 3a
       -0.04962414 -0.08475368 -0.038653724 0.0014922197
0001e0 8e 10 f9 bb a5 d0 d9 3b a3 f7 b4 bd c4 0f f0 3c
       -0.0076008504 0.006647187 -0.088362955 0.029304393
0001f0 12 e2 b4 bc 03 c3 54 bd fa 6b ad bd 84 52 b2 bd
       -0.022080455 -0.05194379 -0.084678605 -0.08707145
000200 0c 2f 29 bd 6d f8 01 bd f4 89 82 bd 69 83 38 bd
       -0.041304633 -0.031731058 -0.06373969 -0.045047197
000210 d3 0b 6c bc 2b e6 ca bd b0 c7 d6 bb 3b d9 97 bc
       -0.014407116 -0.09907182 -0.0065545663 -0.0185362
000220 62 b7 1a bd e2 12 8d bd a8 bf 36 bd 23 b4 a2 bd
       -0.037772544 -0.06888367 -0.04461637 -0.079445146
000230 e4 6c 0d bd f0 ce ba bd 18 61 6c 3a 67 86 a9 bc
       -0.034527674 -0.091215014 0.00090171536 -0.02069397
000240 15 88 df bc 8d 2e 43 bc 1a 9b 7f bc 31 5c bd bd
       -0.027286569 -0.011912954 -0.015600944 -0.092461
000250 3f 20 ee bc bd 73 18 bd 00 51 98 bd 45 81 37 bd
       -0.02906811 -0.03721975 -0.074373245 -0.044801015
000260 f1 18 fd bc 2b fe 83 bd b9 93 9c bd 24 60 21 bd
       -0.030895682 -0.06444963 -0.07645363 -0.039398327
000270 61 2a 33 bd 02 a5 88 bd 5b 2b d7 bd 33 96 a5 bc
       -0.043741588 -0.06672098 -0.10506316 -0.020213222
000280 85 83 0e 3b 5d 04 e5 bd 95 9e c7 bc 22 1f ba 3b
       0.0021745872 -0.11182473 -0.02436761 0.005679981
000290 07 0e e8 bc 44 9d 97 bb f0 b9 d4 bc ee 20 44 bd
       -0.028327001 -0.004626902 -0.025967568 -0.047882967
0002a0 25 b6 27 bd 71 60 99 bd a5 61 91 bd 38 62 8c bd
       -0.04094519 -0.07489098 -0.07098702 -0.06854671
0002b0 ec 69 b8 bd ca 65 10 bd de 88 d1 3a d7 a6 a8 bd
       -0.09004578 -0.035253324 0.0015986224 -0.08234947
0002c0 f9 3d 6d bd d0 37 0b bd 2f 30 56 bd eb 98 25 bd
       -0.05792043 -0.033988774 -0.052292045 -0.040429037
0002d0 b4 5a 8b 3d 7e 39 b9 3d 65 b7 68 3c e2 e1 12 3e
       0.068044096 0.09044169 0.014203881 0.1434398
0002e0 cc 07 e8 3d 0b 52 43 3d fc 23 a2 3b 0b 2f 2b bd
       0.11329612 0.047685664 0.0049481373 -0.04179291
0002f0 d9 ee 04 3e dd 81 8a 3d f5 ce 82 bd ae 68 d2 bb
       0.12981738 0.06763051 -0.0638713 -0.00642117
000300 00 2f 89 3d b0 b1 9b bb 48 9b c4 bd da 82 32 bd
       0.06698418 -0.0047514066 -0.0959993 -0.04358182
000310 1c c4 cf bd 5c 8b f4 bc d0 6e c8 bd 90 59 3d bc
       -0.10144827 -0.029851608 -0.09786761 -0.011556998
000320 70 02 ac bc dc f8 96 bd 7d 63 2c bd 94 b7 81 bb
       -0.020997256 -0.07371685 -0.042087067 -0.003958652
000330 96 16 34 bd 05 ad ed bd dd 18 95 bd 0a d7 aa bd
       -0.043966852 -0.116052665 -0.07280133 -0.08341797
000340 3f 4e 7b bd 34 7b a6 bd 40 52 3c bb 65 95 92 bd
       -0.06135392 -0.08128968 -0.0028735548 -0.07157401
000350 57 3f a6 bc d3 07 48 bc 01 a5 d7 bd fe 85 ad bd
       -0.020293875 -0.012208897 -0.10529519 -0.084728226
000360 5b f0 8b bd 49 fe ff 3d 11 57 cc 3d 22 7a 1f bd
       -0.068329535 0.12499673 0.09977544 -0.038934834
000370 4e f7 99 3d 57 d2 55 bd b5 54 91 bd 9a 47 6b 3d
       0.07517873 -0.05220255 -0.07096235 0.05744133
000380 5b 0d 54 3d 90 54 bd bb 1a e9 a5 bd 55 68 08 3c
       0.05177055 -0.005777903 -0.08101101 0.008325656
000390 55 13 5f bd 53 53 7d bd b1 9e 90 bd f6 a0 be bd
       -0.054461796 -0.061847042 -0.07061518 -0.093080446
0003a0 2d d4 c9 bc 8d 62 41 bd 63 c2 b0 bd 09 a8 9a bb
       -0.024637306 -0.047213126 -0.08630826 -0.0047197384
0003b0 e5 3f c3 bd b8 db 52 bd ed 6f 9d bc a4 c2 af 3c
       -0.09533671 -0.05147907 -0.01921841 0.021455117
0003c0 1c a4 2c bd 41 56 4f bd 36 f4 e0 bc a8 48 9f bd
       -0.042148694 -0.050619368 -0.027460199 -0.0777753
0003d0 fc e3 68 bc 3e 43 b0 bd 87 39 d9 bd 62 ae 1e bd
       -0.014214512 -0.086065754 -0.106066756 -0.038740523
0003e0 24 dd 82 bd df c8 ef bd b2 34 4e bd 57 3a 4e bd
       -0.063898355 -0.11708235 -0.050343223 -0.050348606
0003f0 ca dd fd 3a 9a c6 17 3b a7 d3 bb 3d 87 9e 35 3c
       0.0019368466 0.0023159147 0.09171229 0.011085159

_depth_estimator_._down_.2.0.bias f4 [32]
000000 1e ff 80 3c 76 a2 d5 3b 62 b1 39 3c d6 4b 4f 3d
       0.01574665 0.006519611 0.011333795 0.050609432
000010 5d ed 0f 3d 9c 42 25 3d 0e 3a d3 bc 81 ee 95 3a
       0.035138477 0.040346727 -0.025784519 0.0011438878
000020 03 0e 56 bd 18 c9 dd 3c fb f5 b6 3c 89 9f fd 3c
       -0.052259456 0.027073428 0.02233409 0.030959861
000030 c4 8f a4 bc 0c b9 19 3c 7f b2 47 bd ad aa c4 bc
       -0.020088084 0.0093824975 -0.04875421 -0.024007166
000040 d9 44 a4 3c 51 32 93 bc 7c b3 3d bc 4e 5a 31 3d
       0.02005236 -0.017968329 -0.011578437 0.043299012
000050 3d bc 48 3d 03 e0 78 3c 7a 9b c3 bc 1c 0c 36 3d
       0.049007643 0.015190127 -0.023877848 0.044445142
000060 4f 80 23 3d ba 0c 67 bc cb 5b 8c bc 85 8b d9 3c
       0.039917286 -0.014102155 -0.017133614 0.026555786
000070 c6 c0 22 bd 8b b1 32 bd 6a 40 0d bd 97 a7 4b 3c
       -0.039734624 -0.04362635 -0.03448526 0.012430093

_depth_estimator_._down_.2.1.weight f4 [32]
000000 ee 77 86 3f 0d 2a 8d 3f 2f 50 89 3f ad 0d 6a 3f
       1.050535 1.1028458 1.0727595 0.9142712
000010 3b 25 5b 3f a3 dd 7a 3f 95 cf 86 3f b7 e7 76 3f
       0.85603684 0.9799444 1.0532099 0.9644732
000020 96 b6 65 3f 58 f5 6c 3f 52 69 7c 3f f7 4a 6e 3f
       0.8973173 0.92561865 0.98598206 0.9308314
000030 0f f2 85 3f 3e 99 77 3f fa e3 64 3f d5 93 69 3f
       1.0464495 0.96718204 0.89410365 0.912412
000040 ad a8 84 3f 32 9c 8a 3f 1e 63 7e 3f 08 6d 75 3f
       1.0363976 1.0828917 0.9936999 0.95869493
000050 15 cd 74 3f b9 ea 75 3f a7 ee 59 3f d3 9a 78 3f
       0.9562543 0.96061283 0.8512978 0.97111243
000060 4a cb 73 3f cb 54 66 3f f7 7a 6d 3f 08 ac 89 3f
       0.9523207 0.89973134 0.92765754 1.0755625
000070 81 34 68 3f 4b 17 7b 3f bd 36 70 3f 1c a2 87 3f
       0.90705115 0.9808242 0.93833524 1.0596347

_depth_estimator_._down_.2.1.bias f4 [32]
000000 5f 91 2b 3d cd 99 da 3d e4 95 92 3d 26 cd 19 be
       0.041886684 0.106738664 0.071574956 -0.15019664
000010 7a b3 18 be 8b 52 1e bd a7 a4 a2 3d 3f b1 1e be
       -0.14912215 -0.038652938 0.07941561 -0.15497302
000020 74 eb d5 3a 1f 91 8b bd 10 7f 8f bb 90 a3 40 3a
       0.0016320781 -0.06814789 -0.0043791607 0.00073485915
000030 4c 80 c6 3c d4 39 7d 3c bd 53 1c be c9 a0 08 be
       0.024231099 0.015455682 -0.15266319 -0.13342585
000040 f0 6c 5b bb 6b 7d 9e 3d b1 e6 29 bd fe a6 c2 bc
       -0.003348168 0.07738765 -0.04147977 -0.023761269
000050 e5 3b 89 bc a0 83 39 bb c6 21 fb bd f7 10 9f bd
       -0.016752193 -0.0028307214 -0.12262301 -0.07766908
000060 6d fd be bd c7 90 03 be de e2 2e bd 61 4d 74 bc
       -0.09325681 -0.12848197 -0.042696826 -0.014911027
000070 dc 35 e6 bd f6 53 8b 3d db df d7 bc aa 41 9a 3d
       -0.112407416 0.06803124 -0.02635186 0.07532056

_depth_estimator_._down_.2.1.running_mean f4 [32]
000000 e8 3c 52 c0 21 7e a3 c0 bc 18 d3 be 59 b6 2c 40
       -3.2849674 -5.1091466 -0.41229808 2.6986296
000010 8c 07 93 3f 0b 32 c5 3f 9d 2c 3b c0 aa cd 76 40
       1.1486678 1.5405897 -2.924598 3.8563027
000020 bf c6 d9 c0 4d a1 c6 be 0b 22 1d bf ce 77 20 c0
       -6.805511 -0.38794938 -0.6138007 -2.5073123
000030 4b a1 0e 3e 23 77 88 c0 f0 1d 76 40 c7 6c a8 bf
       0.13928716 -4.264543 3.8455772 -1.3158196
000040 98 fc 55 bf 43 09 83 c0 3e 0e 34 40 f1 61 30 40
       -0.8358855 -4.0948806 2.8133693 2.7559779
000050 fc e4 49 c0 0b 7b 33 3f 0e f6 2e c0 e5 29 6a 40
       -3.154601 0.70109624 -2.733768 3.658807
000060 6f 0c 7d 40 2f 67 c2 3f b2 cc 6c 40 76 5e cd 3f
       3.953884 1.5187739 3.6999936 1.6044452
000070 eb fc cb 3f 7e fd 66 c0 42 ea 6c c0 71 6d 87 c0
       1.593656 -3.609222 -3.701798 -4.2321095

_depth_estimator_._down_.2.1.running_var f4 [32]
000000 0c f3 b4 40 ea df a0 41 6d 6b 1e 41 39 91 5b 41
       5.654669 20.109333 9.901227 13.722955
000010 d4 b7 0d 41 49 b7 cf 40 7f a0 04 41 62 c1 96 41
       8.85738 6.4911237 8.289184 18.844425
000020 7f 01 50 42 aa fc 8f 41 26 6b 3a 42 1b fd 4e 41
       52.00146 17.998371 46.604637 12.936793
000030 e6 e9 ec 40 1c 02 15 42 9d ab 5a 42 21 38 14 41
       7.403552 37.25206 54.66759 9.263703
000040 1b ce e2 40 fd 13 42 41 d9 5c c9 40 a4 3d 3c 41
       7.0876594 12.12988 6.292584 11.765049
000050 c0 d9 10 41 f4 ca 31 41 46 42 25 41 67 09 07 41
       9.053162 11.112049 10.32868 8.4397955
000060 25 a7 0d 41 94 55 5c 41 a9 3d 19 42 3c 1b aa 40
       8.853307 13.770893 38.310215 5.3158245
000070 74 7b 94 41 61 5c fc 41 0c 31 45 41 f3 ef 36 41
       18.56028 31.545107 12.324474 11.433581

_depth_estimator_._up_.0.0.weight f4 [32, 32, 2, 2]
000000 26 15 61 be 42 da ae bd be 71 8b be e3 e4 6d bd
       -0.21980724 -0.08537723 -0.27235216 -0.05807961
000010 16 a5 f7 bd 02 b7 61 bd 2d 03 f1 bd 16 ad 7f 3d
       -0.120920345 -0.05510617 -0.11768184 0.062420927
000020 86 fc 3a bd 52 4b f6 ba bb a0 ea bd a9 53 f5 bd
       -0.04565098 -0.0018790758 -0.11456438 -0.119788475
000030 fe d6 e0 bd 4a 31 0b be e4 a2 0f be 5f 43 11 bd
       -0.109785065 -0.13593021 -0.14026982 -0.03546464
000040 44 91 55 3d 6d 8c cc 3d 87 cc b0 3c 21 f9 de 3d
       0.05214049 0.099877216 0.021581901 0.10887361
000050 be 42 85 3d 23 fe 11 be 77 c4 88 3b 75 1c e5 bc
       0.06506871 -0.14257102 0.004173811 -0.027967671
000060 8d 87 f6 bd ea d7 23 bd d6 ab c1 bd 70 32 3c 3d
       -0.12037573 -0.040000834 -0.09456603 0.04594654
000070 90 34 f6 3d c6 82 35 be 87 cb 87 3d 9a 60 0d be
       0.12021744 -0.17725667 0.06630617 -0.13806382
000080 b2 24 ae bc 12 ad fa bc 52 38 1f bd 97 b2 10 3e
       -0.021257732 -0.030600104 -0.03887207 0.14130627
000090 9a cd d4 bb 81 b9 c3 bc ae da 58 3e 90 43 4a be
       -0.006494236 -0.023892166 0.2117717 -0.19752336
0000a0 db 65 37 3e d2 ff b8 3b 4b a2 86 3d ad 47 98 bd
       0.17909949 0.0056457305 0.06573924 -0.07435546
0000b0 f1 6f 3f bc 30 fb 01 be 3b 5d f8 bd f8 d0 45 3c
       -0.011684404 -0.12693477 -0.12127157 0.012073748
0000c0 68 a5 a9 bd 66 89 83 3d 9a a5 90 bd 4b a2 9d bd
       -0.08283502 0.06422691 -0.07062836 -0.076969706
0000d0 a2 48 84 3d ba 3a 7c bc 85 2e ba bd bb 26 1c bd
       0.06459166 -0.015394861 -0.09090904 -0.038122874
0000e0 1c e0 06 3e 61 8b c3 3d cd 32 b6 3d 41 d8 25 3e
       0.13171428 0.09548069 0.08896408 0.16195776
0000f0 e6 0d 8b bc 00 0e c6 bd a5 64 a0 bd 44 eb 96 3c
       -0.0169744 -0.09670639 -0.078316964 0.01842273
000100 4b 4e f7 3d 83 f9 e3 3c 8e b5 41 bd 03 f6 05 be
       0.1207548 0.027828937 -0.047292285 -0.13082127
000110 65 40 2c be b8 f1 2f 3e bb f7 f8 3c ea ac d5 3d
       -0.1682144 0.17182052 0.030391565 0.10433371
000120 be 08 a4 3d f3 be ff 3c 29 3c 9e 3d b4 a8 c9 bc
       0.0800948 0.031218981 0.077263184 -0.024616577
000130 45 56 2d be 74 cb d7 3d 90 bb da 3d fe c5 0d be
       -0.1692744 0.105368525 0.10680306 -0.1384506
000140 72 c2 03 be 57 f3 8a bd 5e 49 3f bd 4c 58 7d be
       -0.12867144 -0.06784695 -0.046700828 -0.24740714
000150 10 46 02 bc 02 03 32 bd 5e 03 18 bd 6c f4 e1 3d
       -0.0079512745 -0.0434599 -0.037112586 0.11032948
000160 db f9 84 3d 31 c6 33 3e ae ca f0 3d 63 28 98 3d
       0.06492969 0.17556073 0.11757408 0.07429578
000170 5b 32 01 3d 47 e1 0e 3e 8b 86 9a 3c db 63 2a 3d
       0.031542163 0.13953124 0.018862983 0.041599136
000180 43 b2 ae bc f2 91 13 be 81 f2 08 be a5 1c cf bd
       -0.021325236 -0.14411142 -0.13373758 -0.101128854
000190 b7 6f 3f 3d db 3c 81 3d 52 e0 dc 3b 64 6b 0c bd
       0.0467374 0.063104354 0.0067406083 -0.034282103
0001a0 e5 46 b7 bb 0d ca 04 3d 5c 81 3f bd ca 02 f7 3d
       -0.005593168 0.032419253 -0.046754226 0.12061079
0001b0 48 02 85 bd cb 35 25 be 1c 09 15 bd 7d a1 47 be
       -0.06494576 -0.16133802 -0.03638564 -0.19495197
0001c0 8c ba a7 3d 6a ba e3 bd 26 62 18 3d 47 54 49 3c
       0.08189878 -0.1111954 0.037202977 0.01228816
0001d0 15 ef 88 3d a1 79 9f 3d ec 89 1d 3e f7 f2 a4 bd
       0.06686226 0.07786871 0.15384644 -0.08054154
0001e0 9e 33 ce bd 49 df 81 be 60 63 cd bd 0b c9 63 3d
       -0.10068439 -0.25365666 -0.1002872 0.05561165
0001f0 b9 9e 9e bd 54 37 4f bd 34 fd ee bd 02 4d 21 bc
       -0.07745118 -0.050589874 -0.116693884 -0.00984502
000200 62 a5 82 bc 5d b0 41 be e8 99 aa 3d 1f 11 9e bd
       -0.015948001 -0.18914934 0.083301365 -0.07718109
000210 38 92 87 bd 1f bc 43 be 82 a9 ee 3d 66 19 26 be
       -0.06619686 -0.19114731 0.11653425 -0.16220626
000220 76 06 c3 bd 65 1f 92 bd ba ee b3 3c db 7a 98 3d
       -0.09522717 -0.07134894 0.02196442 0.07445308
000230 e9 a9 8a bd 08 3c ca 3c 0d 37 6a be 7f 03 ec bd
       -0.06770689 0.024686828 -0.22872563 -0.11524104
000240 c5 a1 0d 3e 3b 55 b6 3d bc 5b d0 3c 4e 3d 43 3e
       0.13831241 0.08902975 0.025434367 0.19066355
000250 17 27 8c 3d 96 34 9d 3d 7e 82 a7 3d 0a 08 44 3d
       0.06843393 0.076760456 0.08179186 0.04785923
000260 d5 c7 7d bd b0 0e 25 be 7d ad fe bb 1e fe 12 be
       -0.061958153 -0.16118884 -0.0077721463 -0.1435475
000270 3a fc de 3b 92 8a 92 3b 46 10 1d be 0e f0 c5 bd
       0.00680497 0.0044720853 -0.15338239 -0.096649274
000280 15 13 0a 3d ba 69 9e 3c 39 c2 4e bd b2 c7 6b bc
       0.033709604 0.019337524 -0.050478194 -0.014390873
000290 0d 38 0a be a3 78 b3 3d 35 3d b6 3d 8f 92 96 bc
       -0.13497944 0.08763244 0.08898393 -0.018380431
0002a0 20 88 45 3e 69 8d 3f bd 32 50 f9 3d ba 42 65 3d
       0.19290209 -0.04676572 0.12173499 0.05597184
0002b0 ad 24 1e 3e 57 f4 4f bd 97 a6 00 3d fe 46 0b bd
       0.15443678 -0.05077013 0.031408872 -0.03400325
0002c0 43 a2 0d 3e 29 9d bf bd b7 d5 46 3d 3a c8 c0 bd
       0.13831429 -0.09356148 0.048543658 -0.0941319
0002d0 97 cb 14 3e 4f 6c fb bc 31 04 dd 3d b8 6f f7 3a
       0.14530788 -0.030691294 0.10791815 0.0018877899
0002e0 d8 51 95 3d 15 d4 9d 3d 12 7f a5 3d 11 b1 c5 3d
       0.07291001 0.07706467 0.08080877 0.09652913
0002f0 47 b6 09 3e c6 87 d3 3c 12 3c e1 3d a6 94 7b 3d
       0.1344844 0.025821578 0.10997786 0.06142106
000300 d7 19 2d 3e f6 33 fd 3d 93 70 e0 3d dd f2 14 3d
       0.16904388 0.123634264 0.10958972 0.036364425
000310 87 35 b4 3c c5 b2 e9 3c 76 a5 dc 3c ee e5 1c 3e
       0.02199818 0.028527627 0.026934367 0.15322086
000320 fe 6f cb bd 27 00 24 3c 60 3a 5e be 17 26 06 be
       -0.0993347 0.010009802 -0.21701956 -0.13100468
000330 bf f1 31 3d 9e 62 07 3e 08 24 38 3e 0a fc ee 3d
       0.043443438 0.13221213 0.17982495 0.116691664
000340 2e 18 16 be 29 53 94 be b2 e9 93 bd d0 f8 4a 3d
       -0.14657661 -0.28969696 -0.07222308 0.049553692
000350 6c 94 06 be 60 88 58 bc 6e dd 2d 3c ac 9d 04 3d
       -0.13142556 -0.013216108 0.010611875 0.03237693
000360 43 86 26 3e 7e d7 83 3d b1 ec e7 3d f5 ff ac 3d
       0.16262154 0.06437586 0.11324442 0.084472574
000370 5a 17 e3 bd 51 a6 cd 3d 5a 07 e2 3b 03 b2 92 bd
       -0.11088438 0.10041488 0.006897849 -0.07162859
000380 e5 4a 48 bd a3 f2 23 be 03 61 d2 bd 9d 9d 00 bd
       -0.04889955 -0.16010527 -0.1027241 -0.03140031
000390 df e7 8b bc f6 d0 b2 bd a9 9a 0b 3c ae fc f0 bd
       -0.017078338 -0.087312624 0.008520761 -0.11766945
0003a0 21 23 bb bd 6d 77 df 3c 89 29 2e bd 04 e3 d6 3b
       -0.0913756 0.027278626 -0.04252008 0.006557824
0003b0 4e 1a 11 be 9d 82 9a bc b0 46 42 3d f7 f8 69 bd
       -0.1417019 -0.01886111 0.047430694 -0.057122197
0003c0 a9 76 01 3e 7a 15 3d 3e 5a 48 95 3c 58 f4 49 be
       0.12642922 0.18465224 0.018222976 -0.19722116
0003d0 99 89 50 bc b4 6c 1b 3d 17 77 78 bd 04 f5 27 be
       -0.012728118 0.037945464 -0.060660448 -0.1640206
0003e0 1f 4e 84 bd a2 2f b6 bd 51 30 64 3b cd 00 d4 bb
       -0.06460213 -0.08895804 0.0034818838 -0.006469822
0003f0 42 7b 39 be fa a6 f9 bd c1 c9 ba 3d a8 08 bd bc
       -0.18113425 -0.121900514 0.09120513 -0.023075417

_depth_estimator_._up_.0.0.bias f4 [32]
000000 d0 89 d5 bb 0b f9 7b 3d f6 bc 6f bd ca d6 5a bd
       -0.0065166727 0.061516803 -0.058529817 -0.053427495
000010 65 1c 12 3d 79 83 b0 bd 70 30 9e 3d 3e dc 8c 3c
       0.03567161 -0.086188264 0.077240825 0.017194863
000020 55 43 11 bc 5c 30 65 ba e4 b3 5b bd 33 2b b9 bd
       -0.008866151 -0.0008742863 -0.053638354 -0.09041443
000030 13 b2 90 bd bf 8c b0 bc 12 70 b1 bd d0 06 fc 3c
       -0.07065215 -0.021551488 -0.08663954 0.030764967
000040 57 47 cd 3c 79 31 d1 bc e9 41 47 3d 9b 66 8f bc
       0.025058432 -0.025536286 0.04864684 -0.01750498
000050 79 90 45 bd b8 b1 5e 3c 5c 6b b2 bd 66 64 2e 3c
       -0.048233483 0.013592176 -0.087118834 0.010644054
000060 d2 50 95 bc 9f 14 44 bd 66 19 25 bd f0 f8 8c bd
       -0.018227015 -0.04787123 -0.040307425 -0.068834186
000070 a9 44 3c bd 13 21 60 3d ce 44 0d bd 74 31 59 3d
       -0.045963917 0.054719042 -0.034489445 0.053025678

_depth_estimator_._up_.0.1.weight f4 [32]
000000 89 cd 8c 3f 48 d0 85 3f 4a d9 76 3f e8 f8 7f 3f
       1.1000224 1.0454187 0.96425307 0.99989176
000010 f3 36 89 3f 39 83 86 3f a6 33 8b 3f 97 bc 7e 3f
       1.0719894 1.0508796 1.0875137 0.99506515
000020 0d cc 87 3f 17 33 81 3f 4e 9e 52 3f 70 13 8f 3f
       1.0609146 1.0093716 0.82272804 1.1177807
000030 3c c0 74 3f ab 34 80 3f b6 fe 7f 3f ef 20 5d 3f
       0.95605826 1.0016073 0.99998033 0.8637838
000040 44 18 78 3f d7 e7 7f 3f 5e 4d 7f 3f 9c 53 65 3f
       0.96912026 0.99963135 0.9972743 0.895807
000050 2e de 84 3f f5 92 87 3f a4 47 6d 3f c1 fb 80 3f
       1.0380304 1.0591723 0.9268744 1.0076829
000060 1e ce 85 3f 44 d8 81 3f 50 42 8b 3f 14 90 8d 3f
       1.0453527 1.0144124 1.0879612 1.1059594
000070 5a 6b 6d 3f f7 cd 4d 3f 5f e7 84 3f 4f 58 7b 3f
       0.9274193 0.803924 1.0383109 0.98181623

_depth_estimator_._up_.0.1.bias f4 [32]
000000 ae d9 c4 3d 76 f7 63 3d b4 b0 5a bd de a9 09 3d
       0.096118316 0.05565592 -0.053391173 0.033609264
000010 1f 54 a5 bc 83 ef e1 3d 20 43 b2 3d 20 dc 72 bc
       -0.020181714 0.11032011 0.08704209 -0.01482299
000020 0e 49 93 3c 19 fb cc 3c 21 3a 4c be 02 b6 2d 3e
       0.017979171 0.025022076 -0.1994405 0.16963962
000030 23 ef 6c bd a4 58 1f bd d4 9b 55 bb fa 43 21 be
       -0.057845246 -0.038902894 -0.0032594102 -0.15748587
000040 66 98 f4 bd 86 0d 87 3c 4f 28 a2 3c f4 f7 9c bd
       -0.1194313 0.01648594 0.019794611 -0.07664481
000050 25 39 e6 3d ef c4 a1 bb 80 63 c8 bd 45 e9 8a bc
       0.11241368 -0.0049368064 -0.09784603 -0.016956935
000060 75 56 b1 3d 13 40 05 bd 1b 75 b7 bc 98 e1 f6 3a
       0.086590685 -0.03253181 -0.022394707 0.0018835543
000070 86 ae d3 bc f6 73 20 be b6 31 bb 3d fc dc 86 bb
       -0.025840055 -0.15669236 0.09140341 -0.004115699

_depth_estimator_._up_.0.1.running_mean f4 [32]
000000 df 02 41 bf 5f 22 de be f1 04 af be 19 80 e6 be
       -0.75395006 -0.43385598 -0.34183457 -0.45019606
000010 2e b3 e5 3e db 95 a4 be 0f 68 b7 be db 71 d7 3d
       0.44863266 -0.3214558 -0.35821578 0.10519763
000020 d8 42 a1 be 10 38 4f 3e e2 62 82 3d 84 85 87 be
       -0.3149631 0.2023623 0.06366517 -0.26469052
000030 fc 25 01 bf 86 67 9a 3e d7 35 95 3e 93 3f 8a 3d
       -0.50448585 0.30157107 0.2914264 0.06750407
000040 36 dc 2e 3f 65 f7 39 3e 7a e6 03 bd c9 03 99 3e
       0.68304765 0.1816078 -0.03220222 0.298857
000050 70 b7 40 bf 7f c1 0f 3e cc ea ac bd 41 4a a2 3e
       -0.75279903 0.14038657 -0.084432214 0.31697276
000060 c8 74 1c bf fc 29 de 3d 34 2d 07 be 91 d6 a6 be
       -0.61115694 0.10847852 -0.13200837 -0.32585576
000070 9b 33 3d 3e 8c 29 9c 3e 5a ef e2 be d0 87 a3 bd
       0.18476717 0.30500448 -0.44323236 -0.079848886

_depth_estimator_._up_.0.1.running_var f4 [32]
000000 37 b5 ca 3e 6e 6b c4 3e 32 d4 8a 3e 6d 86 11 3f
       0.3959138 0.38363212 0.27115017 0.5684574
000010 07 61 62 3e 43 cf 92 3e 19 4b d8 3e 1c d9 b1 3e
       0.22107325 0.28673753 0.42244795 0.34735954
000020 15 f7 2c 3e c8 71 12 3f e6 35 a4 3f f0 86 89 3e
       0.1689113 0.57204866 1.2828948 0.26860762
000030 4f c5 f9 3e 4f a2 47 3e 59 da b0 3e 41 24 02 3f
       0.48783347 0.1949551 0.34541586 0.5083657
000040 c6 b0 0a 3f 13 77 cb 3e 25 95 d6 3e 1d 0c 20 3f
       0.54175985 0.39739284 0.41910663 0.62518483
000050 fe 3b b7 3e 62 9e 63 3e c3 cc 7c 3e 12 ae b5 3e
       0.35787958 0.22228387 0.24687485 0.35484368
000060 24 80 c5 3e 40 59 64 3e 4a b3 eb 3d 2b 81 92 3e
       0.38574326 0.22299671 0.11508806 0.28614172
000070 86 3d ba 3e 91 3a 82 3f e6 7c d9 3e cd f5 45 3e
       0.36375064 1.0174123 0.42478102 0.19332047
